chess_net.pth (torch, 68384 bytes, 4 tensors)

fc1.weight f4 [128, 64]
0	0xbdb906f8	-0.09034532
1	0x3deebca4	0.11657074
2	0x3d9605c2	0.07325317
3	0x3c43ac47	0.01194293
4	0xbce50c1a	-0.027959872
5	0x3dedfdee	0.11620699
6	0xbdc43b95	-0.09581677
7	0x3d47e011	0.04879767
8	0xbdb25b07	-0.08708768
9	0x3d469f94	0.04849203
10	0x3db2bd76	0.08727543
11	0x3e01d991	0.12680651
12	0xbd34f1a9	-0.044175778
13	0xbc5c1a1d	-0.01343396
14	0xbcade025	-0.021225045
15	0xbcc1cc79	-0.02365707
16	0x3da1bfc3	0.07897904
17	0xbd40e464	-0.04709281
18	0x38b13adb	8.4509804e-05
19	0xbdf2f1ac	-0.118625015
20	0x3d9a2452	0.07526459
21	0xbdc373ad	-0.09543548
22	0x3cd0a09c	0.02546721
23	0x3d85b843	0.06529286
24	0xbc9ad35c	-0.018899612
25	0xbd955a90	-0.07292664
26	0xbd5bfcdd	-0.053707946
27	0xbd89eb8a	-0.06734379
28	0xbd9d0e89	-0.07668788
29	0x3d0a784f	0.03380614
30	0x3df817fc	0.1211395
31	0x3c761400	0.015019417
32	0xbd591861	-0.053001765
33	0xbdb5f00e	-0.088836774
34	0x3d1cd9b3	0.03829355
35	0x3c125de0	0.008933514
36	0xbda903fe	-0.082527146
37	0xbd9750e6	-0.07388477
38	0x3dd61b3b	0.104544125
39	0x3dd20b32	0.102560416
40	0x3c878d54	0.016546883
41	0xbd9cd6f4	-0.076581866
42	0x3d5bb71a	0.053641416
43	0x3d94064c	0.072277635
44	0x3d05f5aa	0.032704987
45	0x3db4f5a3	0.08835914
46	0x3d7a7491	0.061146323
47	0x3d0b2d85	0.033978958
48	0xbd9b72c4	-0.07590249
49	0xbd256527	-0.04037967
50	0x3b989e6e	0.004657558
51	0xbd3bf4ee	-0.04588788
52	0x3d1cf003	0.03831483
53	0x3cccbc10	0.024992019
54	0xbd921cfc	-0.071344346
55	0xbd90e686	-0.07075219
56	0x3d0cf443	0.034412634
57	0x3dad8979	0.084734865
58	0x3d8daa31	0.06917227
59	0xbe0306c3	-0.12795548
60	0x3db00951	0.08595527
61	0xbcd1f464	-0.02562923
62	0x3d57311d	0.052537072
63	0xbd9f158b	-0.07767781
64	0xbd693130	-0.056931674
65	0x3d0bc9ba	0.03412793
66	0xbdc764ff	-0.0973606
67	0x3d82fb2e	0.06395565
68	0x3c23b175	0.0099910395
69	0x3d948d6f	0.07253539
70	0x3db53f95	0.08850018
71	0xbe0c2acc	-0.136882
72	0x3c781998	0.015142821
73	0xbe036f6b	-0.12835471
74	0x3b68fb48	0.0035550166
75	0xbd7054a6	-0.058674477
76	0x3c327cbb	0.010893996
77	0xbd204847	-0.03913143
78	0xbddb76d3	-0.10716023
79	0xbd5aafe0	-0.053390384
80	0xbda78755	-0.081801094
81	0x3dae4535	0.08509294
82	0xbde77210	-0.113010526
83	0x3db6ed97	0.089320354
84	0x3dd0cdd5	0.10195509
85	0xbe037d77	-0.1284083
86	0x3c53e07a	0.012931937
87	0xbcf956bc	-0.030436866
88	0x3c7dce3f	0.015491067
89	0xbd1cc700	-0.03827572
90	0xbe054227	-0.13013516
91	0xbe0b1ac3	-0.13584428
92	0xbca20972	-0.019779895
93	0xbcb862ca	-0.022508044
94	0x3d19f6e9	0.037588987
95	0xbd7feade	-0.062479846
96	0xbdbea623	-0.09309032
97	0xbd4df52f	-0.050282653
98	0x3da33910	0.07969868
99	0x3db1fa09	0.086902685
100	0x3da7a01c	0.08184835
101	0x3d8f5d68	0.07000238
102	0x3e0b9500	0.13631058
103	0x3dcfee22	0.10152842
104	0x3e10380d	0.14083882
105	0x3ddf8f82	0.10916044
106	0xbda46bf9	-0.08028407
107	0x3d9cdd76	0.07659428
108	0x3c7944da	0.015214169
109	0xbd7a00ec	-0.061036035
110	0xbcd16e45	-0.025565276
111	0xbdc597a4	-0.09648064
112	0xbdf62dd8	-0.12020463
113	0xbdca95a8	-0.09891826
114	0x3d1b437e	0.037906162
115	0x3dc8c1dc	0.09802601
116	0x3d843d8c	0.06457052
117	0x3dfd60e5	0.12371997
118	0x3ccfc023	0.025360173
119	0x3cd057af	0.025432436
120	0x3d67f041	0.05662561
121	0x3c31a3a8	0.010842241
122	0x3d850ed4	0.06496969
123	0xbcfc6218	-0.030808493
124	0x3cd74684	0.026278742
125	0x3ddebbc3	0.108756565
126	0xbdb90efe	-0.09036063
127	0xbb018897	-0.0019765252
128	0xbd278637	-0.04089948
129	0xbd95b346	-0.07309584
130	0xbd01c45c	-0.031681404
131	0xbdfb45d0	-0.12269175
132	0x3ccf05fc	0.025271408
133	0xbdb36542	-0.08759548
134	0x3d8cc67a	0.06873794
135	0x3d860825	0.06544522
136	0xbe0fd5da	-0.14046422
137	0x3da17e57	0.078854255
138	0xbddf69ba	-0.109088376
139	0xbe13196b	-0.14365165
140	0x3d930fd8	0.07180756
141	0x3ca3e9c8	0.020008937
142	0xbe06f114	-0.13177902
143	0x3cc01e77	0.023452027
144	0x3d8c3673	0.06846323
145	0x3dfeeefa	0.12447925
146	0xbd9fddef	-0.07806002
147	0x3d52b572	0.05144257
148	0x3dd3808a	0.10327251
149	0x3d8ac743	0.067762874
150	0xbd46fde2	-0.048581965
151	0x3d99e125	0.07513646
152	0xbdc8da59	-0.098072715
153	0x3dac6034	0.08416787
154	0x3de57a12	0.11204924
155	0xbd1fc7e0	-0.039008975
156	0xbdfa3593	-0.1221725
157	0xbe0f47c6	-0.13992223
158	0xbdeec192	-0.11658014
159	0xbdb654c3	-0.08902886
160	0x3dce25f5	0.100658335
161	0x3bfa045b	0.0076299137
162	0xbd7077f4	-0.058708146
163	0x3deca4ce	0.115548715
164	0x3dc5f001	0.09664918
165	0x3d3f2dc7	0.046674516
166	0x3dd24a72	0.102681056
167	0xbd8d9db4	-0.06914845
168	0x3c9fc8fe	0.01950502
169	0x3dae0869	0.08497698
170	0x3c71aa82	0.014750125
171	0xbd637c32	-0.055538364
172	0x3dc54521	0.09632326
173	0x3e05244e	0.1300213
174	0x3dda8c4b	0.1067129
175	0xbc8f8495	-0.017519275
176	0x3df85c92	0.121270314
177	0x3c97c05e	0.018524345
178	0x3db42258	0.08795613
179	0xbde0206f	-0.10943686
180	0x3e0f8319	0.14014854
181	0xbd2798ac	-0.040917084
182	0x3e072032	0.13195875
183	0xbd6917f7	-0.05690762
184	0x3cb758dc	0.022381239
185	0x3d837dac	0.064204544
186	0x3d44d10d	0.04805093
187	0xbdb76ed6	-0.08956687
188	0x3dde225c	0.10846397
189	0x3d6212a9	0.055193577
190	0x3cb2fb6c	0.021848403
191	0xbd814997	-0.06312864
192	0xbd33087c	-0.043709263
193	0x3dc15704	0.09440425
194	0xbdffd370	-0.124915004
195	0xbd3c1bc5	-0.04592492
196	0xbd58df6f	-0.052947458
197	0x3d014048	0.031555444
198	0x3a43c3eb	0.0007467854
199	0xbbec558f	-0.007212348
200	0xbcf45045	-0.029823432
201	0x3d4f6164	0.05062999
202	0x3ac5b8d0	0.0015084986
203	0xbd4925e2	-0.049108393
204	0xbd51685a	-0.051124908
205	0xbd2bf887	-0.04198506
206	0xbd3a4efe	-0.04548549
207	0x3d75a851	0.059974972
208	0xbc5e386e	-0.013563259
209	0x3dc3c586	0.09559159
210	0xbc62fe5f	-0.013854592
211	0x3cbb8498	0.022890374
212	0x3dc46852	0.0959021
213	0x3d9d2125	0.076723374
214	0xbd9264dd	-0.071481444
215	0x3d94710b	0.07248124
216	0x3cfc7e02	0.030821804
217	0xbd14c9b0	-0.036325157
218	0xbd8f2f13	-0.069914006
219	0xbdcea96c	-0.100909084
220	0xbe0f6f68	-0.14007342
221	0x3ba252e7	0.0049537304
222	0x3ddfb8ab	0.109238945
223	0xbb8cc226	-0.0042956052
224	0x3de9f05b	0.11422797
225	0x3c733dde	0.014846293
226	0xbb86378b	-0.0040959767
227	0xbdbabdad	-0.09118209
228	0xbe1108dc	-0.14163536
229	0x3c62f893	0.01385321
230	0xbd85cbc9	-0.065330096
231	0xbc2489b3	-0.010042596
232	0x3da0fd4c	0.078608125
233	0x3c253ef4	0.01008581
234	0xbcf3140e	-0.029672649
235	0xbd38fed2	-0.04516489
236	0xba9dc093	-0.0012035541
237	0x3dc1a7b5	0.09455816
238	0xbd8a9d63	-0.067683004
239	0xbc3425b3	-0.010995316
240	0xbd6c34f0	-0.057667673
241	0xbda90d1d	-0.08254454
242	0xbd1684a5	-0.036747593
243	0xba8a6752	-0.0010559356
244	0xbd75a0f1	-0.05996794
245	0x3d7b54d1	0.061360184
246	0x3e009fc0	0.1256094
247	0x3d844450	0.06458342
248	0x3e00c79f	0.1257615
249	0x3dfedce7	0.124444775
250	0x3dfdc0f3	0.12390318
251	0xbd99f0f0	-0.07516658
252	0x3cf5c465	0.030000875
253	0x3d12a5fa	0.03580282
254	0x3d3d88e0	0.046273112
255	0x3d80e37d	0.0629339

fc1.bias f4 [128]
0	0x3d2cb489	0.04216436
1	0xbdb4c8d3	-0.08827367
2	0x3ddef092	0.10885729
3	0xbcabf5eb	-0.020991286
4	0xbda5f40a	-0.081031874
5	0xbbb13d8c	-0.0054089483
6	0xbd516003	-0.051116955
7	0x3d85c969	0.065325566
8	0xbd5455b8	-0.05183956
9	0x3d83992d	0.064257
10	0xbd38d5d2	-0.04512579
11	0xbe0ceaf5	-0.13761504
12	0x3d00f6d8	0.03148541
13	0xbdf06935	-0.11738817
14	0x3dc58f2d	0.09646449
15	0xbcf80afc	-0.030278675
16	0x3de871c8	0.11349827
17	0x3dddb878	0.108262
18	0x3d7fde59	0.062467907
19	0xbd1e7c45	-0.03869273
20	0xbdbe3860	-0.092880964
21	0x3d73b699	0.05950031
22	0x3d7426fd	0.059607495
23	0xbc92a5af	-0.01790127
24	0xbd426441	-0.04745889
25	0xbda64abf	-0.081197254
26	0x3e00dbf4	0.12583905
27	0xbda2b687	-0.079449706
28	0xbd8f9ca9	-0.070123024
29	0xbd4f44a5	-0.050602574
30	0x3d82d5d9	0.063884445
31	0xbcd961a9	-0.026535826
32	0xbd926fb6	-0.071502134
33	0xbd3dcaf6	-0.046336137
34	0x3b206feb	0.002448077
35	0xbcbd180c	-0.023082756
36	0xbc02b062	-0.007976623
37	0x3da73947	0.08165222
38	0x3d765cf1	0.06014723
39	0xbdee27dc	-0.11628696
40	0x3d5ec7db	0.054389816
41	0x3da37f8f	0.07983314
42	0x3de9a57d	0.114085175
43	0xbd3f2ae3	-0.04667176
44	0xbd05554a	-0.03255204
45	0xbbd5dccb	-0.0065265647
46	0x3d990dd9	0.07473344
47	0xbda2dede	-0.07952665
48	0xbbae2f85	-0.0053157234
49	0xbccd51d4	-0.025063433
50	0xbd81fa7d	-0.06346605
51	0x3d680ebb	0.056654673
52	0xbd571385	-0.05250885
53	0x3d09f222	0.03367818
54	0x3d7daea8	0.061934143
55	0xbd2fa7a5	-0.042884488
56	0x3db5d234	0.08877984
57	0xbd8171a7	-0.063205056
58	0x3c8e8987	0.017399563
59	0xbc4178de	-0.011808602
60	0x3dbfe7d0	0.093703866
61	0xbd793b90	-0.06084782
62	0x3d14a674	0.036291555
63	0x3c0234ab	0.007947127
64	0x3c91536a	0.01773997
65	0x3df76f7b	0.1208181
66	0x3d251785	0.040305633
67	0xbd27b5c9	-0.04094485
68	0x3d9e5a85	0.07732109
69	0xbcc22cba	-0.023702968
70	0x3d1540f3	0.036438894
71	0x3d29e296	0.041475855
72	0x3df77e90	0.12084687
73	0x3dabcaf7	0.08388322
74	0x3ca889f8	0.020573601
75	0xbdaa87b3	-0.08326664
76	0xbd5bbc3a	-0.053646304
77	0xbdaf46c3	-0.085584186
78	0xbd26ab92	-0.040690966
79	0x3d69121a	0.05690203
80	0xbdc513e8	-0.096229374
81	0x3df6a5ef	0.12043368
82	0xbb5c8378	-0.0033647697
83	0x3d4620ea	0.048371233
84	0xbda5efcf	-0.081023805
85	0xbbb83ff3	-0.0056228577
86	0x3d5992f8	0.053118676
87	0xbd06d1fe	-0.032915108
88	0x3dbbf6f7	0.09177964
89	0x3d882b54	0.06648889
90	0x3d522656	0.05130609
91	0x3d246e32	0.040144153
92	0x3dc261f9	0.09491343
93	0x3af6d469	0.0018831614
94	0x3dd3ec77	0.103478365
95	0x3cbb8d15	0.022894422
96	0x3dbaf5dc	0.09128925
97	0x3db04103	0.0860615
98	0xbd86626f	-0.065617435
99	0xbdba5285	-0.090977706
100	0xbd969511	-0.07352651
101	0xbb8b37b8	-0.0042485856
102	0x3de52413	0.11188521
103	0xbd3084cd	-0.0430954
104	0x3dcc2886	0.09968667
105	0xbde8f01f	-0.113739245
106	0x3cee83a9	0.029115515
107	0xbda4fbbd	-0.08055828
108	0xbda2a35b	-0.07941314
109	0x3db482e3	0.08814027
110	0xbc8f6f1a	-0.017509032
111	0x3d8f24fa	0.069894746
112	0x3dca3046	0.09872489
113	0x3e0d0b68	0.13773882
114	0xbd3c9632	-0.046041675
115	0x3dcb8f97	0.09939497
116	0x3de68655	0.112560906
117	0xbd4eb7e6	-0.050468348
118	0xbda5e20e	-0.08099757
119	0x3c9d5a5d	0.019208128
120	0xbc86d570	-0.016459197
121	0x3dc53305	0.09628872
122	0x3e07e49b	0.132708
123	0x3d9e1916	0.077196285
124	0xbd29ba91	-0.04143769
125	0x3c5761b5	0.013145854
126	0x3db3a7aa	0.08772214
127	0xbda5de21	-0.08099008

fc2.weight f4 [64, 128]
0	0xbbd1a709	-0.006398086
1	0xbcaca669	-0.021075444
2	0x3c8d3454	0.017236866
3	0xbc26f462	-0.010190101
4	0x3cc2f073	0.023796296
5	0xbdb4ebe4	-0.08834055
6	0xbd6c9a17	-0.05776414
7	0xbc467307	-0.012112386
8	0x3d5a8fcb	0.053359788
9	0xbda7a600	-0.08185959
10	0x3c5f8730	0.013643071
11	0x3d3d312d	0.046189476
12	0xbc141c39	-0.009039932
13	0xbc877573	-0.016535496
14	0xbd089d0b	-0.033352893
15	0x3d830270	0.06396949
16	0xbdb967a2	-0.090529695
17	0xbd70546a	-0.058674254
18	0xbba371c8	-0.004987929
19	0xbdce568b	-0.100751005
20	0x3bab15f2	0.005221122
21	0x3da9b419	0.08286304
22	0x3db04bfa	0.086082414
23	0xbc1f4d50	-0.009723023
24	0x3d6cd9c8	0.05782488
25	0x3d602696	0.0547243
26	0x3d8abcb0	0.067742705
27	0xbca0bff9	-0.01962279
28	0x3d141f58	0.036162704
29	0xbd33885e	-0.04383122
30	0xbc5ca490	-0.013466969
31	0xbda5eade	-0.08101438
32	0xbd429dc5	-0.047513742
33	0xbd63effb	-0.055648785
34	0x3c4a9ca4	0.012366448
35	0x3b2a710f	0.002600733
36	0x3ca9bf5d	0.020721132
37	0x3c95456a	0.018221576
38	0x3d298d95	0.04139479
39	0x3c2cbe56	0.0105434265
40	0x3dc01673	0.09379282
41	0x3ad947bc	0.0016577165
42	0x3c9ac6be	0.018893596
43	0x3d818e48	0.06325966
44	0xbc871212	-0.016488109
45	0x3d9444ab	0.0723966
46	0xbd6bf609	-0.057607684
47	0x3cd3ecc5	0.025869736
48	0x3d5ba787	0.053626563
49	0x3c2076c6	0.009793943
50	0x3d6ffa41	0.05858827
51	0x3d2428c4	0.04007794
52	0x3cac070f	0.02099946
53	0x3d719470	0.05897945
54	0x3d1d7d7d	0.038449753
55	0x3c8c9be0	0.01716417
56	0xbcc2911d	-0.023750836
57	0xbd692e37	-0.05692884
58	0x3d40e677	0.04709479
59	0x3d300719	0.04297552
60	0xbd96ee06	-0.07369618
61	0x3c1ef6fc	0.00970244
62	0x3d6046f8	0.05475518
63	0xbc1c3a57	-0.009535394
64	0xbd3853b7	-0.04500171
65	0xbd20005a	-0.039062835
66	0xbd2c48e7	-0.042061713
67	0xbd7d31d5	-0.0618151
68	0xbdb4823e	-0.08813904
69	0x3d44f184	0.04808189
70	0xbd97c47a	-0.07410522
71	0xbd60592a	-0.054772533
72	0x3ca51825	0.020153115
73	0x3d4870bc	0.048935637
74	0x3d621e45	0.05520465
75	0xba8c0bb9	-0.0010684646
76	0xbc51cff8	-0.012805931
77	0x3ca1da3e	0.019757386
78	0xbd433a28	-0.047662884
79	0x3d8ef422	0.069801584
80	0xbd4e2e2e	-0.05033701
81	0xbd6243a8	-0.055240303
82	0x3d229902	0.0396967
83	0x3d63c56b	0.055608194
84	0x3d0e1634	0.034689143
85	0xbbbe8628	-0.0058143325
86	0xbd9ec37f	-0.07752132
87	0x3cefeaed	0.029286826
88	0xbb794302	-0.0038034325
89	0x3d8c859d	0.06861422
90	0x3cf3f492	0.029779706
91	0xbc042c5a	-0.008067215
92	0xbd9db15b	-0.076998435
93	0xbc9ebd65	-0.01937742
94	0xbc769a7d	-0.015051481
95	0xbd4e4f09	-0.050368343
96	0xbdac60fe	-0.08416937
97	0xbcea6dfe	-0.028616901
98	0xbd90164a	-0.07035501
99	0xbcb4f951	-0.02209154
100	0xbd6102bf	-0.05493426
101	0x3be451ef	0.006967775
102	0x3c0bf87d	0.008543131
103	0xbce6c0e4	-0.02816815
104	0x3d097d67	0.03356686
105	0x3d358809	0.044319186
106	0xbd4b2c19	-0.0496026
107	0xbd774061	-0.06036413
108	0x3d091fa9	0.03347746
109	0xbd252a52	-0.040323563
110	0x3c8c01fe	0.017090794
111	0x3c8d3422	0.017236773
112	0xbd8689a7	-0.06569224
113	0xbd0a6bdc	-0.03379427
114	0xbd8f22e1	-0.069890745
115	0xbd21158d	-0.039327193
116	0xbbf55889	-0.007487361
117	0xbc8b68cc	-0.017017744
118	0xbd9d9046	-0.076935336
119	0x3d86c9c7	0.06581455
120	0xbd7a5658	-0.0611175
121	0x3c39b854	0.011335451
122	0xbd0b87c1	-0.034065012
123	0x3c9c75d2	0.01909915
124	0x3d577c2d	0.052608658
125	0xbcf9d40e	-0.030496623
126	0x3d834200	0.06409073
127	0x3d6e57b4	0.05818911
128	0x3da2c527	0.0794776
129	0x3d1a7f37	0.037718978
130	0xbd13b6c7	-0.036062982
131	0xbdac1148	-0.08401734
132	0xbbefafa8	-0.007314641
133	0xbcd326b4	-0.025775291
134	0xbd9d7410	-0.07688153
135	0xbc95e0eb	-0.018295726
136	0x3d5ca8be	0.053871863
137	0xbd49c727	-0.049262192
138	0xbc86c20d	-0.016449952
139	0x3db6bbd4	0.08922544
140	0xbc77b05b	-0.01511773
141	0x3d9f190e	0.07768451
142	0xbd8f2cd3	-0.069909714
143	0x3d9afe17	0.07567995
144	0x3d2c0779	0.041999314
145	0x3ceb49a0	0.02872163
146	0xbcbb4b27	-0.022862984
147	0xbabdb39c	-0.0014473083
148	0xbd9e36bd	-0.07725284
149	0xbd3f518a	-0.04670862
150	0x3d8e7e7d	0.069577195
151	0x3d788f1c	0.060683355
152	0x3b3b1e75	0.002855209
153	0x3d9d3d13	0.076776646
154	0x3d3181d1	0.043336693
155	0x3d8a3b86	0.067496344
156	0xbc9dbe35	-0.019255737
157	0xbca6e5f8	-0.02037333
158	0xbca7f0c2	-0.020500544
159	0x3b98c24b	0.0046618334
160	0xbce085f4	-0.027407624
161	0x3c1ada55	0.0094514685
162	0x3d8ac65c	0.06776115
163	0x3d52080f	0.051277217
164	0xbbefd9cf	-0.007319666
165	0x3d312a8f	0.043253478
166	0xbcf70f86	-0.03015877
167	0x3dbae152	0.09125008
168	0xbd5a1841	-0.053245787
169	0x3ce4fb74	0.027951933
170	0xbd963734	-0.07334748
171	0xbd7611d5	-0.0600756
172	0x3d6253aa	0.05525557
173	0x3d5019fb	0.050806027
174	0x3da629a6	0.081134126
175	0xbd81d896	-0.063401386
176	0x3d731ecf	0.059355553
177	0xbca1fca4	-0.019773789
178	0xbd5acd0a	-0.053418197
179	0x3d980a9d	0.07423899
180	0x3ce9297c	0.028462164
181	0xbd121033	-0.03565998
182	0xbd324012	-0.043518133
183	0xbd667f79	-0.05627391
184	0xbd685a3c	-0.05672668
185	0x3d5bd478	0.053669423
186	0x3da7eb41	0.08199168
187	0xbd6c35f9	-0.05766866
188	0x3cbe74bd	0.023249025
189	0x3d4ec697	0.05048236
190	0xbd1e9c4f	-0.038723286
191	0x3d699c0c	0.057033584
192	0x3ba68acb	0.0050824634
193	0xbc89c798	-0.016818807
194	0xbd100556	-0.03516134
195	0xbd4a6864	-0.04941596
196	0x3cf5d56a	0.03000899
197	0xbda81711	-0.082075246
198	0x3c09b5b4	0.008405138
199	0xbd88f4d8	-0.06687325
200	0x3d2f4d3a	0.04279826
201	0xbd79ab81	-0.060954574
202	0x3da285ef	0.07935702
203	0xbdb6f166	-0.08932762
204	0x3c7cfdc3	0.015441361
205	0x3c930d93	0.017950809
206	0x3d3655e3	0.0445155
207	0x3bd829f4	0.006596798
208	0xbd9df917	-0.07713526
209	0xbdac1abf	-0.08403539
210	0x3d38a2fb	0.045077305
211	0xbd885d3b	-0.06658407
212	0x3c1ea066	0.009681797
213	0xbcbe8e32	-0.023261163
214	0xba870252	-0.0010300374
215	0x3d21867e	0.039434902
216	0xbcdfc10c	-0.027313732
217	0xbdb8a281	-0.0901537
218	0xbcb11037	-0.021614177
219	0xbd899f53	-0.06719842
220	0x3d66174a	0.056174554
221	0x3bdcad67	0.0067345384
222	0x3c5ca029	0.0134659195
223	0xbd638678	-0.05554816
224	0xbc588091	-0.013214246
225	0x3dcae798	0.09907454
226	0xbd877b83	-0.06615355
227	0xbd581c09	-0.05276111
228	0xbd962b3d	-0.07332466
229	0xbd4b0013	-0.049560618
230	0x3ce5de0b	0.02805998
231	0x3d8675da	0.06565447
232	0x3d1ef8cb	0.038811486
233	0x3dd24a39	0.10268063
234	0x3c164deb	0.0091738505
235	0xbbbab709	-0.005698089
236	0x3da56ca6	0.08077364
237	0x3c420f69	0.011844494
238	0x3d5613ad	0.052264858
239	0x3dc831d3	0.09775128
240	0x3d07bf7e	0.033141606
241	0x3cdefe13	0.027220761
242	0xbab5d994	-0.0013874047
243	0xbc60c6a1	-0.013719232
244	0xbd980010	-0.07421887
245	0xbc40dbf0	-0.011771187
246	0x3d9bb642	0.07603122
247	0xbbd283ef	-0.006424419
248	0xbcc8916e	-0.024483409
249	0xbd9be657	-0.07612293
250	0x3d903371	0.07041062
251	0xbd5ebe62	-0.054380782
252	0xbd6c8ec7	-0.05775335
253	0xbcb804f1	-0.022463294
254	0xbdae1d6e	-0.08501707
255	0x3aff52d0	0.0019479636

fc2.bias f4 [64]
0	0xbd019c82	-0.031643398
1	0xbd3651bf	-0.044511553
2	0xbda2c410	-0.07947552
3	0x3d034a84	0.032053486
4	0x3d0aa50e	0.033848815
5	0xbd82ce8d	-0.06387053
6	0x3d3c7923	0.046013962
7	0xbd0aff03	-0.033934604
8	0x3bb03f21	0.0053786193
9	0x3d124201	0.035707477
10	0x3c4b88b9	0.012422734
11	0x3c5d5908	0.013509996
12	0x3d525594	0.051351145
13	0x3c00a758	0.007852398
14	0xbc6965c5	-0.014245455
15	0x3d945bcb	0.072440706
16	0x3d9c8902	0.0764332
17	0xbd13164e	-0.035909943
18	0x3d1be808	0.03806308
19	0x3d664f7b	0.056228142
20	0xbd977587	-0.073954634
21	0xbd7d5492	-0.06184823
22	0x3d8ddc8d	0.06926832
23	0x3d8c9df2	0.06866063
24	0xbcf38221	-0.029725136
25	0x3d6c2aad	0.057657886
26	0x3c0b903b	0.008518274
27	0x3d8f896b	0.07008632
28	0xbd88cd7b	-0.06679817
29	0x3d4f1597	0.0505577
30	0x3d534878	0.051582783
31	0xbda1284b	-0.078690134
32	0xbcdf7a2d	-0.027279938
33	0xbd755cbd	-0.059902895
34	0x3d51026c	0.0510277
35	0xbd2e2e8d	-0.042524863
36	0xbda87f2f	-0.08227383
37	0x3cc09cf0	0.023512334
38	0xbca925bb	-0.020647874
39	0xbd977f1d	-0.07397292
40	0x3cafaf6e	0.021445956
41	0x3d1ea139	0.038727973
42	0xbd5565de	-0.0520991
43	0x3db4c9ed	0.08827577
44	0xbd68a686	-0.056799434
45	0x3d97afab	0.07406553
46	0x3b7aadf9	0.0038250668
47	0xbb204827	-0.0024457069
48	0x3c93258b	0.017962238
49	0xbc600090	-0.013672009
50	0xbd988801	-0.07447816
51	0xbd8cebea	-0.068809345
52	0x3d86905a	0.065705016
53	0x3d63132e	0.055438213
54	0x3c814f31	0.015784832
55	0x3c32c815	0.010911961
56	0x3cd0e28f	0.025498657
57	0x3d7d2f96	0.06181296
58	0x3dbf32b6	0.09335844
59	0xbc4b62c5	-0.012413685
60	0x3d1da8a5	0.03849091
61	0x3ca45013	0.020057714
62	0x3d401462	0.04689444
63	0xbd7f6a1a	-0.062357046
